{
    "format": "layers-model",
    "generatedBy": "keras v3.8.0",
    "convertedBy": "TensorFlow.js Converter v4.22.0",
    "modelTopology": {
        "keras_version": "3.8.0",
        "backend": "tensorflow",
        "model_config": {
            "class_name": "Functional",
            "config": {
                "name": "functional_1",
                "trainable": true,
                "layers": [
                    {
                        "class_name": "InputLayer",
                        "config": {
                            "inputShape": [
                                8,
                                8,
                                12
                            ],
                            "dtype": "float32",
                            "sparse": false,
                            "name": "input_layer_1"
                        },
                        "name": "input_layer_1",
                        "inbound_nodes": []
                    },
                    {
                        "class_name": "Conv2D",
                        "config": {
                            "name": "conv2d_15",
                            "trainable": true,
                            "dtype": {
                                "module": "keras",
                                "class_name": "DTypePolicy",
                                "config": {
                                    "name": "float32"
                                },
                                "registered_name": null
                            },
                            "filters": 64,
                            "kernel_size": [
                                3,
                                3
                            ],
                            "strides": [
                                1,
                                1
                            ],
                            "padding": "same",
                            "data_format": "channels_last",
                            "dilation_rate": [
                                1,
                                1
                            ],
                            "groups": 1,
                            "activation": "linear",
                            "use_bias": true,
                            "kernel_initializer": {
                                "module": "keras.initializers",
                                "class_name": "GlorotUniform",
                                "config": {
                                    "seed": null
                                },
                                "registered_name": null
                            },
                            "bias_initializer": {
                                "module": "keras.initializers",
                                "class_name": "Zeros",
                                "config": {},
                                "registered_name": null
                            },
                            "kernel_regularizer": null,
                            "bias_regularizer": null,
                            "activity_regularizer": null,
                            "kernel_constraint": null,
                            "bias_constraint": null
                        },
                        "name": "conv2d_15",
                        "inbound_nodes": [[["input_layer_1", 0, 0]]]
                    },
                    {
                        "class_name": "BatchNormalization",
                        "config": {
                            "name": "batch_normalization_15",
                            "trainable": true,
                            "dtype": {
                                "module": "keras",
                                "class_name": "DTypePolicy",
                                "config": {
                                    "name": "float32"
                                },
                                "registered_name": null
                            },
                            "axis": -1,
                            "momentum": 0.99,
                            "epsilon": 0.001,
                            "center": true,
                            "scale": true,
                            "beta_initializer": {
                                "module": "keras.initializers",
                                "class_name": "Zeros",
                                "config": {},
                                "registered_name": null
                            },
                            "gamma_initializer": {
                                "module": "keras.initializers",
                                "class_name": "Ones",
                                "config": {},
                                "registered_name": null
                            },
                            "moving_mean_initializer": {
                                "module": "keras.initializers",
                                "class_name": "Zeros",
                                "config": {},
                                "registered_name": null
                            },
                            "moving_variance_initializer": {
                                "module": "keras.initializers",
                                "class_name": "Ones",
                                "config": {},
                                "registered_name": null
                            },
                            "beta_regularizer": null,
                            "gamma_regularizer": null,
                            "beta_constraint": null,
                            "gamma_constraint": null,
                            "synchronized": false
                        },
                        "name": "batch_normalization_15",
                        "inbound_nodes": [[["conv2d_15", 0, 0]]]
                    },
                    {
                        "class_name": "ReLU",
                        "config": {
                            "name": "re_lu_13",
                            "trainable": true,
                            "dtype": {
                                "module": "keras",
                                "class_name": "DTypePolicy",
                                "config": {
                                    "name": "float32"
                                },
                                "registered_name": null
                            },
                            "max_value": null,
                            "negative_slope": 0.0,
                            "threshold": 0.0
                        },
                        "name": "re_lu_13",
                        "inbound_nodes": [[["batch_normalization_15", 0, 0]]]
                    },
                    {
                        "class_name": "Conv2D",
                        "config": {
                            "name": "conv2d_16",
                            "trainable": true,
                            "dtype": {
                                "module": "keras",
                                "class_name": "DTypePolicy",
                                "config": {
                                    "name": "float32"
                                },
                                "registered_name": null
                            },
                            "filters": 64,
                            "kernel_size": [
                                3,
                                3
                            ],
                            "strides": [
                                1,
                                1
                            ],
                            "padding": "same",
                            "data_format": "channels_last",
                            "dilation_rate": [
                                1,
                                1
                            ],
                            "groups": 1,
                            "activation": "linear",
                            "use_bias": true,
                            "kernel_initializer": {
                                "module": "keras.initializers",
                                "class_name": "GlorotUniform",
                                "config": {
                                    "seed": null
                                },
                                "registered_name": null
                            },
                            "bias_initializer": {
                                "module": "keras.initializers",
                                "class_name": "Zeros",
                                "config": {},
                                "registered_name": null
                            },
                            "kernel_regularizer": null,
                            "bias_regularizer": null,
                            "activity_regularizer": null,
                            "kernel_constraint": null,
                            "bias_constraint": null
                        },
                        "name": "conv2d_16",
                        "inbound_nodes": [[["re_lu_13", 0, 0]]]
                    },
                    {
                        "class_name": "BatchNormalization",
                        "config": {
                            "name": "batch_normalization_16",
                            "trainable": true,
                            "dtype": {
                                "module": "keras",
                                "class_name": "DTypePolicy",
                                "config": {
                                    "name": "float32"
                                },
                                "registered_name": null
                            },
                            "axis": -1,
                            "momentum": 0.99,
                            "epsilon": 0.001,
                            "center": true,
                            "scale": true,
                            "beta_initializer": {
                                "module": "keras.initializers",
                                "class_name": "Zeros",
                                "config": {},
                                "registered_name": null
                            },
                            "gamma_initializer": {
                                "module": "keras.initializers",
                                "class_name": "Ones",
                                "config": {},
                                "registered_name": null
                            },
                            "moving_mean_initializer": {
                                "module": "keras.initializers",
                                "class_name": "Zeros",
                                "config": {},
                                "registered_name": null
                            },
                            "moving_variance_initializer": {
                                "module": "keras.initializers",
                                "class_name": "Ones",
                                "config": {},
                                "registered_name": null
                            },
                            "beta_regularizer": null,
                            "gamma_regularizer": null,
                            "beta_constraint": null,
                            "gamma_constraint": null,
                            "synchronized": false
                        },
                        "name": "batch_normalization_16",
                        "inbound_nodes": [[["conv2d_16", 0, 0]]]
                    },
                    {
                        "class_name": "ReLU",
                        "config": {
                            "name": "re_lu_14",
                            "trainable": true,
                            "dtype": {
                                "module": "keras",
                                "class_name": "DTypePolicy",
                                "config": {
                                    "name": "float32"
                                },
                                "registered_name": null
                            },
                            "max_value": null,
                            "negative_slope": 0.0,
                            "threshold": 0.0
                        },
                        "name": "re_lu_14",
                        "inbound_nodes": [[["batch_normalization_16", 0, 0]]]
                    },
                    {
                        "class_name": "Conv2D",
                        "config": {
                            "name": "conv2d_17",
                            "trainable": true,
                            "dtype": {
                                "module": "keras",
                                "class_name": "DTypePolicy",
                                "config": {
                                    "name": "float32"
                                },
                                "registered_name": null
                            },
                            "filters": 64,
                            "kernel_size": [
                                3,
                                3
                            ],
                            "strides": [
                                1,
                                1
                            ],
                            "padding": "same",
                            "data_format": "channels_last",
                            "dilation_rate": [
                                1,
                                1
                            ],
                            "groups": 1,
                            "activation": "linear",
                            "use_bias": true,
                            "kernel_initializer": {
                                "module": "keras.initializers",
                                "class_name": "GlorotUniform",
                                "config": {
                                    "seed": null
                                },
                                "registered_name": null
                            },
                            "bias_initializer": {
                                "module": "keras.initializers",
                                "class_name": "Zeros",
                                "config": {},
                                "registered_name": null
                            },
                            "kernel_regularizer": null,
                            "bias_regularizer": null,
                            "activity_regularizer": null,
                            "kernel_constraint": null,
                            "bias_constraint": null
                        },
                        "name": "conv2d_17",
                        "inbound_nodes": [[["re_lu_14", 0, 0]]]
                    },
                    {
                        "class_name": "BatchNormalization",
                        "config": {
                            "name": "batch_normalization_17",
                            "trainable": true,
                            "dtype": {
                                "module": "keras",
                                "class_name": "DTypePolicy",
                                "config": {
                                    "name": "float32"
                                },
                                "registered_name": null
                            },
                            "axis": -1,
                            "momentum": 0.99,
                            "epsilon": 0.001,
                            "center": true,
                            "scale": true,
                            "beta_initializer": {
                                "module": "keras.initializers",
                                "class_name": "Zeros",
                                "config": {},
                                "registered_name": null
                            },
                            "gamma_initializer": {
                                "module": "keras.initializers",
                                "class_name": "Ones",
                                "config": {},
                                "registered_name": null
                            },
                            "moving_mean_initializer": {
                                "module": "keras.initializers",
                                "class_name": "Zeros",
                                "config": {},
                                "registered_name": null
                            },
                            "moving_variance_initializer": {
                                "module": "keras.initializers",
                                "class_name": "Ones",
                                "config": {},
                                "registered_name": null
                            },
                            "beta_regularizer": null,
                            "gamma_regularizer": null,
                            "beta_constraint": null,
                            "gamma_constraint": null,
                            "synchronized": false
                        },
                        "name": "batch_normalization_17",
                        "inbound_nodes": [[["conv2d_17", 0, 0]]]
                    },
                    {
                        "class_name": "Add",
                        "config": {
                            "name": "add_6",
                            "trainable": true,
                            "dtype": {
                                "module": "keras",
                                "class_name": "DTypePolicy",
                                "config": {
                                    "name": "float32"
                                },
                                "registered_name": null
                            }
                        },
                        "name": "add_6",
                        "inbound_nodes": [[["batch_normalization_17", 0, 0], ["re_lu_13", 0, 0]]]
                    },
                    {
                        "class_name": "ReLU",
                        "config": {
                            "name": "re_lu_15",
                            "trainable": true,
                            "dtype": {
                                "module": "keras",
                                "class_name": "DTypePolicy",
                                "config": {
                                    "name": "float32"
                                },
                                "registered_name": null
                            },
                            "max_value": null,
                            "negative_slope": 0.0,
                            "threshold": 0.0
                        },
                        "name": "re_lu_15",
                        "inbound_nodes": [[["add_6", 0, 0]]]
                    },
                    {
                        "class_name": "Conv2D",
                        "config": {
                            "name": "conv2d_18",
                            "trainable": true,
                            "dtype": {
                                "module": "keras",
                                "class_name": "DTypePolicy",
                                "config": {
                                    "name": "float32"
                                },
                                "registered_name": null
                            },
                            "filters": 64,
                            "kernel_size": [
                                3,
                                3
                            ],
                            "strides": [
                                1,
                                1
                            ],
                            "padding": "same",
                            "data_format": "channels_last",
                            "dilation_rate": [
                                1,
                                1
                            ],
                            "groups": 1,
                            "activation": "linear",
                            "use_bias": true,
                            "kernel_initializer": {
                                "module": "keras.initializers",
                                "class_name": "GlorotUniform",
                                "config": {
                                    "seed": null
                                },
                                "registered_name": null
                            },
                            "bias_initializer": {
                                "module": "keras.initializers",
                                "class_name": "Zeros",
                                "config": {},
                                "registered_name": null
                            },
                            "kernel_regularizer": null,
                            "bias_regularizer": null,
                            "activity_regularizer": null,
                            "kernel_constraint": null,
                            "bias_constraint": null
                        },
                        "name": "conv2d_18",
                        "inbound_nodes": [[["re_lu_15", 0, 0]]]
                    },
                    {
                        "class_name": "BatchNormalization",
                        "config": {
                            "name": "batch_normalization_18",
                            "trainable": true,
                            "dtype": {
                                "module": "keras",
                                "class_name": "DTypePolicy",
                                "config": {
                                    "name": "float32"
                                },
                                "registered_name": null
                            },
                            "axis": -1,
                            "momentum": 0.99,
                            "epsilon": 0.001,
                            "center": true,
                            "scale": true,
                            "beta_initializer": {
                                "module": "keras.initializers",
                                "class_name": "Zeros",
                                "config": {},
                                "registered_name": null
                            },
                            "gamma_initializer": {
                                "module": "keras.initializers",
                                "class_name": "Ones",
                                "config": {},
                                "registered_name": null
                            },
                            "moving_mean_initializer": {
                                "module": "keras.initializers",
                                "class_name": "Zeros",
                                "config": {},
                                "registered_name": null
                            },
                            "moving_variance_initializer": {
                                "module": "keras.initializers",
                                "class_name": "Ones",
                                "config": {},
                                "registered_name": null
                            },
                            "beta_regularizer": null,
                            "gamma_regularizer": null,
                            "beta_constraint": null,
                            "gamma_constraint": null,
                            "synchronized": false
                        },
                        "name": "batch_normalization_18",
                        "inbound_nodes": [[["conv2d_18", 0, 0]]]
                    },
                    {
                        "class_name": "ReLU",
                        "config": {
                            "name": "re_lu_16",
                            "trainable": true,
                            "dtype": {
                                "module": "keras",
                                "class_name": "DTypePolicy",
                                "config": {
                                    "name": "float32"
                                },
                                "registered_name": null
                            },
                            "max_value": null,
                            "negative_slope": 0.0,
                            "threshold": 0.0
                        },
                        "name": "re_lu_16",
                        "inbound_nodes": [[["batch_normalization_18", 0, 0]]]
                    },
                    {
                        "class_name": "Conv2D",
                        "config": {
                            "name": "conv2d_19",
                            "trainable": true,
                            "dtype": {
                                "module": "keras",
                                "class_name": "DTypePolicy",
                                "config": {
                                    "name": "float32"
                                },
                                "registered_name": null
                            },
                            "filters": 64,
                            "kernel_size": [
                                3,
                                3
                            ],
                            "strides": [
                                1,
                                1
                            ],
                            "padding": "same",
                            "data_format": "channels_last",
                            "dilation_rate": [
                                1,
                                1
                            ],
                            "groups": 1,
                            "activation": "linear",
                            "use_bias": true,
                            "kernel_initializer": {
                                "module": "keras.initializers",
                                "class_name": "GlorotUniform",
                                "config": {
                                    "seed": null
                                },
                                "registered_name": null
                            },
                            "bias_initializer": {
                                "module": "keras.initializers",
                                "class_name": "Zeros",
                                "config": {},
                                "registered_name": null
                            },
                            "kernel_regularizer": null,
                            "bias_regularizer": null,
                            "activity_regularizer": null,
                            "kernel_constraint": null,
                            "bias_constraint": null
                        },
                        "name": "conv2d_19",
                        "inbound_nodes": [[["re_lu_16", 0, 0]]]
                    },
                    {
                        "class_name": "BatchNormalization",
                        "config": {
                            "name": "batch_normalization_19",
                            "trainable": true,
                            "dtype": {
                                "module": "keras",
                                "class_name": "DTypePolicy",
                                "config": {
                                    "name": "float32"
                                },
                                "registered_name": null
                            },
                            "axis": -1,
                            "momentum": 0.99,
                            "epsilon": 0.001,
                            "center": true,
                            "scale": true,
                            "beta_initializer": {
                                "module": "keras.initializers",
                                "class_name": "Zeros",
                                "config": {},
                                "registered_name": null
                            },
                            "gamma_initializer": {
                                "module": "keras.initializers",
                                "class_name": "Ones",
                                "config": {},
                                "registered_name": null
                            },
                            "moving_mean_initializer": {
                                "module": "keras.initializers",
                                "class_name": "Zeros",
                                "config": {},
                                "registered_name": null
                            },
                            "moving_variance_initializer": {
                                "module": "keras.initializers",
                                "class_name": "Ones",
                                "config": {},
                                "registered_name": null
                            },
                            "beta_regularizer": null,
                            "gamma_regularizer": null,
                            "beta_constraint": null,
                            "gamma_constraint": null,
                            "synchronized": false
                        },
                        "name": "batch_normalization_19",
                        "inbound_nodes": [[["conv2d_19", 0, 0]]]
                    },
                    {
                        "class_name": "Add",
                        "config": {
                            "name": "add_7",
                            "trainable": true,
                            "dtype": {
                                "module": "keras",
                                "class_name": "DTypePolicy",
                                "config": {
                                    "name": "float32"
                                },
                                "registered_name": null
                            }
                        },
                        "name": "add_7",
                        "inbound_nodes": [[["batch_normalization_19", 0, 0], ["re_lu_15", 0, 0]]]
                    },
                    {
                        "class_name": "ReLU",
                        "config": {
                            "name": "re_lu_17",
                            "trainable": true,
                            "dtype": {
                                "module": "keras",
                                "class_name": "DTypePolicy",
                                "config": {
                                    "name": "float32"
                                },
                                "registered_name": null
                            },
                            "max_value": null,
                            "negative_slope": 0.0,
                            "threshold": 0.0
                        },
                        "name": "re_lu_17",
                        "inbound_nodes": [[["add_7", 0, 0]]]
                    },
                    {
                        "class_name": "Conv2D",
                        "config": {
                            "name": "conv2d_20",
                            "trainable": true,
                            "dtype": {
                                "module": "keras",
                                "class_name": "DTypePolicy",
                                "config": {
                                    "name": "float32"
                                },
                                "registered_name": null
                            },
                            "filters": 128,
                            "kernel_size": [
                                3,
                                3
                            ],
                            "strides": [
                                1,
                                1
                            ],
                            "padding": "same",
                            "data_format": "channels_last",
                            "dilation_rate": [
                                1,
                                1
                            ],
                            "groups": 1,
                            "activation": "linear",
                            "use_bias": true,
                            "kernel_initializer": {
                                "module": "keras.initializers",
                                "class_name": "GlorotUniform",
                                "config": {
                                    "seed": null
                                },
                                "registered_name": null
                            },
                            "bias_initializer": {
                                "module": "keras.initializers",
                                "class_name": "Zeros",
                                "config": {},
                                "registered_name": null
                            },
                            "kernel_regularizer": null,
                            "bias_regularizer": null,
                            "activity_regularizer": null,
                            "kernel_constraint": null,
                            "bias_constraint": null
                        },
                        "name": "conv2d_20",
                        "inbound_nodes": [[["re_lu_17", 0, 0]]]
                    },
                    {
                        "class_name": "BatchNormalization",
                        "config": {
                            "name": "batch_normalization_20",
                            "trainable": true,
                            "dtype": {
                                "module": "keras",
                                "class_name": "DTypePolicy",
                                "config": {
                                    "name": "float32"
                                },
                                "registered_name": null
                            },
                            "axis": -1,
                            "momentum": 0.99,
                            "epsilon": 0.001,
                            "center": true,
                            "scale": true,
                            "beta_initializer": {
                                "module": "keras.initializers",
                                "class_name": "Zeros",
                                "config": {},
                                "registered_name": null
                            },
                            "gamma_initializer": {
                                "module": "keras.initializers",
                                "class_name": "Ones",
                                "config": {},
                                "registered_name": null
                            },
                            "moving_mean_initializer": {
                                "module": "keras.initializers",
                                "class_name": "Zeros",
                                "config": {},
                                "registered_name": null
                            },
                            "moving_variance_initializer": {
                                "module": "keras.initializers",
                                "class_name": "Ones",
                                "config": {},
                                "registered_name": null
                            },
                            "beta_regularizer": null,
                            "gamma_regularizer": null,
                            "beta_constraint": null,
                            "gamma_constraint": null,
                            "synchronized": false
                        },
                        "name": "batch_normalization_20",
                        "inbound_nodes": [[["conv2d_20", 0, 0]]]
                    },
                    {
                        "class_name": "ReLU",
                        "config": {
                            "name": "re_lu_18",
                            "trainable": true,
                            "dtype": {
                                "module": "keras",
                                "class_name": "DTypePolicy",
                                "config": {
                                    "name": "float32"
                                },
                                "registered_name": null
                            },
                            "max_value": null,
                            "negative_slope": 0.0,
                            "threshold": 0.0
                        },
                        "name": "re_lu_18",
                        "inbound_nodes": [[["batch_normalization_20", 0, 0]]]
                    },
                    {
                        "class_name": "Conv2D",
                        "config": {
                            "name": "conv2d_21",
                            "trainable": true,
                            "dtype": {
                                "module": "keras",
                                "class_name": "DTypePolicy",
                                "config": {
                                    "name": "float32"
                                },
                                "registered_name": null
                            },
                            "filters": 128,
                            "kernel_size": [
                                3,
                                3
                            ],
                            "strides": [
                                1,
                                1
                            ],
                            "padding": "same",
                            "data_format": "channels_last",
                            "dilation_rate": [
                                1,
                                1
                            ],
                            "groups": 1,
                            "activation": "linear",
                            "use_bias": true,
                            "kernel_initializer": {
                                "module": "keras.initializers",
                                "class_name": "GlorotUniform",
                                "config": {
                                    "seed": null
                                },
                                "registered_name": null
                            },
                            "bias_initializer": {
                                "module": "keras.initializers",
                                "class_name": "Zeros",
                                "config": {},
                                "registered_name": null
                            },
                            "kernel_regularizer": null,
                            "bias_regularizer": null,
                            "activity_regularizer": null,
                            "kernel_constraint": null,
                            "bias_constraint": null
                        },
                        "name": "conv2d_21",
                        "inbound_nodes": [[["re_lu_18", 0, 0]]]
                    },
                    {
                        "class_name": "Conv2D",
                        "config": {
                            "name": "conv2d_22",
                            "trainable": true,
                            "dtype": {
                                "module": "keras",
                                "class_name": "DTypePolicy",
                                "config": {
                                    "name": "float32"
                                },
                                "registered_name": null
                            },
                            "filters": 128,
                            "kernel_size": [
                                1,
                                1
                            ],
                            "strides": [
                                1,
                                1
                            ],
                            "padding": "same",
                            "data_format": "channels_last",
                            "dilation_rate": [
                                1,
                                1
                            ],
                            "groups": 1,
                            "activation": "linear",
                            "use_bias": true,
                            "kernel_initializer": {
                                "module": "keras.initializers",
                                "class_name": "GlorotUniform",
                                "config": {
                                    "seed": null
                                },
                                "registered_name": null
                            },
                            "bias_initializer": {
                                "module": "keras.initializers",
                                "class_name": "Zeros",
                                "config": {},
                                "registered_name": null
                            },
                            "kernel_regularizer": null,
                            "bias_regularizer": null,
                            "activity_regularizer": null,
                            "kernel_constraint": null,
                            "bias_constraint": null
                        },
                        "name": "conv2d_22",
                        "inbound_nodes": [[["re_lu_17", 0, 0]]]
                    },
                    {
                        "class_name": "BatchNormalization",
                        "config": {
                            "name": "batch_normalization_21",
                            "trainable": true,
                            "dtype": {
                                "module": "keras",
                                "class_name": "DTypePolicy",
                                "config": {
                                    "name": "float32"
                                },
                                "registered_name": null
                            },
                            "axis": -1,
                            "momentum": 0.99,
                            "epsilon": 0.001,
                            "center": true,
                            "scale": true,
                            "beta_initializer": {
                                "module": "keras.initializers",
                                "class_name": "Zeros",
                                "config": {},
                                "registered_name": null
                            },
                            "gamma_initializer": {
                                "module": "keras.initializers",
                                "class_name": "Ones",
                                "config": {},
                                "registered_name": null
                            },
                            "moving_mean_initializer": {
                                "module": "keras.initializers",
                                "class_name": "Zeros",
                                "config": {},
                                "registered_name": null
                            },
                            "moving_variance_initializer": {
                                "module": "keras.initializers",
                                "class_name": "Ones",
                                "config": {},
                                "registered_name": null
                            },
                            "beta_regularizer": null,
                            "gamma_regularizer": null,
                            "beta_constraint": null,
                            "gamma_constraint": null,
                            "synchronized": false
                        },
                        "name": "batch_normalization_21",
                        "inbound_nodes": [[["conv2d_21", 0, 0]]]
                    },
                    {
                        "class_name": "BatchNormalization",
                        "config": {
                            "name": "batch_normalization_22",
                            "trainable": true,
                            "dtype": {
                                "module": "keras",
                                "class_name": "DTypePolicy",
                                "config": {
                                    "name": "float32"
                                },
                                "registered_name": null
                            },
                            "axis": -1,
                            "momentum": 0.99,
                            "epsilon": 0.001,
                            "center": true,
                            "scale": true,
                            "beta_initializer": {
                                "module": "keras.initializers",
                                "class_name": "Zeros",
                                "config": {},
                                "registered_name": null
                            },
                            "gamma_initializer": {
                                "module": "keras.initializers",
                                "class_name": "Ones",
                                "config": {},
                                "registered_name": null
                            },
                            "moving_mean_initializer": {
                                "module": "keras.initializers",
                                "class_name": "Zeros",
                                "config": {},
                                "registered_name": null
                            },
                            "moving_variance_initializer": {
                                "module": "keras.initializers",
                                "class_name": "Ones",
                                "config": {},
                                "registered_name": null
                            },
                            "beta_regularizer": null,
                            "gamma_regularizer": null,
                            "beta_constraint": null,
                            "gamma_constraint": null,
                            "synchronized": false
                        },
                        "name": "batch_normalization_22",
                        "inbound_nodes": [[["conv2d_22", 0, 0]]]
                    },
                    {
                        "class_name": "Add",
                        "config": {
                            "name": "add_8",
                            "trainable": true,
                            "dtype": {
                                "module": "keras",
                                "class_name": "DTypePolicy",
                                "config": {
                                    "name": "float32"
                                },
                                "registered_name": null
                            }
                        },
                        "name": "add_8",
                        "inbound_nodes": [[["batch_normalization_21", 0, 0], ["batch_normalization_22", 0, 0]]]
                    },
                    {
                        "class_name": "ReLU",
                        "config": {
                            "name": "re_lu_19",
                            "trainable": true,
                            "dtype": {
                                "module": "keras",
                                "class_name": "DTypePolicy",
                                "config": {
                                    "name": "float32"
                                },
                                "registered_name": null
                            },
                            "max_value": null,
                            "negative_slope": 0.0,
                            "threshold": 0.0
                        },
                        "name": "re_lu_19",
                        "inbound_nodes": [[["add_8", 0, 0]]]
                    },
                    {
                        "class_name": "Conv2D",
                        "config": {
                            "name": "conv2d_23",
                            "trainable": true,
                            "dtype": {
                                "module": "keras",
                                "class_name": "DTypePolicy",
                                "config": {
                                    "name": "float32"
                                },
                                "registered_name": null
                            },
                            "filters": 128,
                            "kernel_size": [
                                3,
                                3
                            ],
                            "strides": [
                                1,
                                1
                            ],
                            "padding": "same",
                            "data_format": "channels_last",
                            "dilation_rate": [
                                1,
                                1
                            ],
                            "groups": 1,
                            "activation": "linear",
                            "use_bias": true,
                            "kernel_initializer": {
                                "module": "keras.initializers",
                                "class_name": "GlorotUniform",
                                "config": {
                                    "seed": null
                                },
                                "registered_name": null
                            },
                            "bias_initializer": {
                                "module": "keras.initializers",
                                "class_name": "Zeros",
                                "config": {},
                                "registered_name": null
                            },
                            "kernel_regularizer": null,
                            "bias_regularizer": null,
                            "activity_regularizer": null,
                            "kernel_constraint": null,
                            "bias_constraint": null
                        },
                        "name": "conv2d_23",
                        "inbound_nodes": [[["re_lu_19", 0, 0]]]
                    },
                    {
                        "class_name": "BatchNormalization",
                        "config": {
                            "name": "batch_normalization_23",
                            "trainable": true,
                            "dtype": {
                                "module": "keras",
                                "class_name": "DTypePolicy",
                                "config": {
                                    "name": "float32"
                                },
                                "registered_name": null
                            },
                            "axis": -1,
                            "momentum": 0.99,
                            "epsilon": 0.001,
                            "center": true,
                            "scale": true,
                            "beta_initializer": {
                                "module": "keras.initializers",
                                "class_name": "Zeros",
                                "config": {},
                                "registered_name": null
                            },
                            "gamma_initializer": {
                                "module": "keras.initializers",
                                "class_name": "Ones",
                                "config": {},
                                "registered_name": null
                            },
                            "moving_mean_initializer": {
                                "module": "keras.initializers",
                                "class_name": "Zeros",
                                "config": {},
                                "registered_name": null
                            },
                            "moving_variance_initializer": {
                                "module": "keras.initializers",
                                "class_name": "Ones",
                                "config": {},
                                "registered_name": null
                            },
                            "beta_regularizer": null,
                            "gamma_regularizer": null,
                            "beta_constraint": null,
                            "gamma_constraint": null,
                            "synchronized": false
                        },
                        "name": "batch_normalization_23",
                        "inbound_nodes": [[["conv2d_23", 0, 0]]]
                    },
                    {
                        "class_name": "ReLU",
                        "config": {
                            "name": "re_lu_20",
                            "trainable": true,
                            "dtype": {
                                "module": "keras",
                                "class_name": "DTypePolicy",
                                "config": {
                                    "name": "float32"
                                },
                                "registered_name": null
                            },
                            "max_value": null,
                            "negative_slope": 0.0,
                            "threshold": 0.0
                        },
                        "name": "re_lu_20",
                        "inbound_nodes": [[["batch_normalization_23", 0, 0]]]
                    },
                    {
                        "class_name": "Conv2D",
                        "config": {
                            "name": "conv2d_24",
                            "trainable": true,
                            "dtype": {
                                "module": "keras",
                                "class_name": "DTypePolicy",
                                "config": {
                                    "name": "float32"
                                },
                                "registered_name": null
                            },
                            "filters": 128,
                            "kernel_size": [
                                3,
                                3
                            ],
                            "strides": [
                                1,
                                1
                            ],
                            "padding": "same",
                            "data_format": "channels_last",
                            "dilation_rate": [
                                1,
                                1
                            ],
                            "groups": 1,
                            "activation": "linear",
                            "use_bias": true,
                            "kernel_initializer": {
                                "module": "keras.initializers",
                                "class_name": "GlorotUniform",
                                "config": {
                                    "seed": null
                                },
                                "registered_name": null
                            },
                            "bias_initializer": {
                                "module": "keras.initializers",
                                "class_name": "Zeros",
                                "config": {},
                                "registered_name": null
                            },
                            "kernel_regularizer": null,
                            "bias_regularizer": null,
                            "activity_regularizer": null,
                            "kernel_constraint": null,
                            "bias_constraint": null
                        },
                        "name": "conv2d_24",
                        "inbound_nodes": [[["re_lu_20", 0, 0]]]
                    },
                    {
                        "class_name": "BatchNormalization",
                        "config": {
                            "name": "batch_normalization_24",
                            "trainable": true,
                            "dtype": {
                                "module": "keras",
                                "class_name": "DTypePolicy",
                                "config": {
                                    "name": "float32"
                                },
                                "registered_name": null
                            },
                            "axis": -1,
                            "momentum": 0.99,
                            "epsilon": 0.001,
                            "center": true,
                            "scale": true,
                            "beta_initializer": {
                                "module": "keras.initializers",
                                "class_name": "Zeros",
                                "config": {},
                                "registered_name": null
                            },
                            "gamma_initializer": {
                                "module": "keras.initializers",
                                "class_name": "Ones",
                                "config": {},
                                "registered_name": null
                            },
                            "moving_mean_initializer": {
                                "module": "keras.initializers",
                                "class_name": "Zeros",
                                "config": {},
                                "registered_name": null
                            },
                            "moving_variance_initializer": {
                                "module": "keras.initializers",
                                "class_name": "Ones",
                                "config": {},
                                "registered_name": null
                            },
                            "beta_regularizer": null,
                            "gamma_regularizer": null,
                            "beta_constraint": null,
                            "gamma_constraint": null,
                            "synchronized": false
                        },
                        "name": "batch_normalization_24",
                        "inbound_nodes": [[["conv2d_24", 0, 0]]]
                    },
                    {
                        "class_name": "Add",
                        "config": {
                            "name": "add_9",
                            "trainable": true,
                            "dtype": {
                                "module": "keras",
                                "class_name": "DTypePolicy",
                                "config": {
                                    "name": "float32"
                                },
                                "registered_name": null
                            }
                        },
                        "name": "add_9",
                        "inbound_nodes": [[["batch_normalization_24", 0, 0], ["re_lu_19", 0, 0]]]
                    },
                    {
                        "class_name": "ReLU",
                        "config": {
                            "name": "re_lu_21",
                            "trainable": true,
                            "dtype": {
                                "module": "keras",
                                "class_name": "DTypePolicy",
                                "config": {
                                    "name": "float32"
                                },
                                "registered_name": null
                            },
                            "max_value": null,
                            "negative_slope": 0.0,
                            "threshold": 0.0
                        },
                        "name": "re_lu_21",
                        "inbound_nodes": [[["add_9", 0, 0]]]
                    },
                    {
                        "class_name": "Conv2D",
                        "config": {
                            "name": "conv2d_25",
                            "trainable": true,
                            "dtype": {
                                "module": "keras",
                                "class_name": "DTypePolicy",
                                "config": {
                                    "name": "float32"
                                },
                                "registered_name": null
                            },
                            "filters": 256,
                            "kernel_size": [
                                3,
                                3
                            ],
                            "strides": [
                                1,
                                1
                            ],
                            "padding": "same",
                            "data_format": "channels_last",
                            "dilation_rate": [
                                1,
                                1
                            ],
                            "groups": 1,
                            "activation": "linear",
                            "use_bias": true,
                            "kernel_initializer": {
                                "module": "keras.initializers",
                                "class_name": "GlorotUniform",
                                "config": {
                                    "seed": null
                                },
                                "registered_name": null
                            },
                            "bias_initializer": {
                                "module": "keras.initializers",
                                "class_name": "Zeros",
                                "config": {},
                                "registered_name": null
                            },
                            "kernel_regularizer": null,
                            "bias_regularizer": null,
                            "activity_regularizer": null,
                            "kernel_constraint": null,
                            "bias_constraint": null
                        },
                        "name": "conv2d_25",
                        "inbound_nodes": [[["re_lu_21", 0, 0]]]
                    },
                    {
                        "class_name": "BatchNormalization",
                        "config": {
                            "name": "batch_normalization_25",
                            "trainable": true,
                            "dtype": {
                                "module": "keras",
                                "class_name": "DTypePolicy",
                                "config": {
                                    "name": "float32"
                                },
                                "registered_name": null
                            },
                            "axis": -1,
                            "momentum": 0.99,
                            "epsilon": 0.001,
                            "center": true,
                            "scale": true,
                            "beta_initializer": {
                                "module": "keras.initializers",
                                "class_name": "Zeros",
                                "config": {},
                                "registered_name": null
                            },
                            "gamma_initializer": {
                                "module": "keras.initializers",
                                "class_name": "Ones",
                                "config": {},
                                "registered_name": null
                            },
                            "moving_mean_initializer": {
                                "module": "keras.initializers",
                                "class_name": "Zeros",
                                "config": {},
                                "registered_name": null
                            },
                            "moving_variance_initializer": {
                                "module": "keras.initializers",
                                "class_name": "Ones",
                                "config": {},
                                "registered_name": null
                            },
                            "beta_regularizer": null,
                            "gamma_regularizer": null,
                            "beta_constraint": null,
                            "gamma_constraint": null,
                            "synchronized": false
                        },
                        "name": "batch_normalization_25",
                        "inbound_nodes": [[["conv2d_25", 0, 0]]]
                    },
                    {
                        "class_name": "ReLU",
                        "config": {
                            "name": "re_lu_22",
                            "trainable": true,
                            "dtype": {
                                "module": "keras",
                                "class_name": "DTypePolicy",
                                "config": {
                                    "name": "float32"
                                },
                                "registered_name": null
                            },
                            "max_value": null,
                            "negative_slope": 0.0,
                            "threshold": 0.0
                        },
                        "name": "re_lu_22",
                        "inbound_nodes": [[["batch_normalization_25", 0, 0]]]
                    },
                    {
                        "class_name": "Conv2D",
                        "config": {
                            "name": "conv2d_26",
                            "trainable": true,
                            "dtype": {
                                "module": "keras",
                                "class_name": "DTypePolicy",
                                "config": {
                                    "name": "float32"
                                },
                                "registered_name": null
                            },
                            "filters": 256,
                            "kernel_size": [
                                3,
                                3
                            ],
                            "strides": [
                                1,
                                1
                            ],
                            "padding": "same",
                            "data_format": "channels_last",
                            "dilation_rate": [
                                1,
                                1
                            ],
                            "groups": 1,
                            "activation": "linear",
                            "use_bias": true,
                            "kernel_initializer": {
                                "module": "keras.initializers",
                                "class_name": "GlorotUniform",
                                "config": {
                                    "seed": null
                                },
                                "registered_name": null
                            },
                            "bias_initializer": {
                                "module": "keras.initializers",
                                "class_name": "Zeros",
                                "config": {},
                                "registered_name": null
                            },
                            "kernel_regularizer": null,
                            "bias_regularizer": null,
                            "activity_regularizer": null,
                            "kernel_constraint": null,
                            "bias_constraint": null
                        },
                        "name": "conv2d_26",
                        "inbound_nodes": [[["re_lu_22", 0, 0]]]
                    },
                    {
                        "class_name": "Conv2D",
                        "config": {
                            "name": "conv2d_27",
                            "trainable": true,
                            "dtype": {
                                "module": "keras",
                                "class_name": "DTypePolicy",
                                "config": {
                                    "name": "float32"
                                },
                                "registered_name": null
                            },
                            "filters": 256,
                            "kernel_size": [
                                1,
                                1
                            ],
                            "strides": [
                                1,
                                1
                            ],
                            "padding": "same",
                            "data_format": "channels_last",
                            "dilation_rate": [
                                1,
                                1
                            ],
                            "groups": 1,
                            "activation": "linear",
                            "use_bias": true,
                            "kernel_initializer": {
                                "module": "keras.initializers",
                                "class_name": "GlorotUniform",
                                "config": {
                                    "seed": null
                                },
                                "registered_name": null
                            },
                            "bias_initializer": {
                                "module": "keras.initializers",
                                "class_name": "Zeros",
                                "config": {},
                                "registered_name": null
                            },
                            "kernel_regularizer": null,
                            "bias_regularizer": null,
                            "activity_regularizer": null,
                            "kernel_constraint": null,
                            "bias_constraint": null
                        },
                        "name": "conv2d_27",
                        "inbound_nodes": [[["re_lu_21", 0, 0]]]
                    },
                    {
                        "class_name": "BatchNormalization",
                        "config": {
                            "name": "batch_normalization_26",
                            "trainable": true,
                            "dtype": {
                                "module": "keras",
                                "class_name": "DTypePolicy",
                                "config": {
                                    "name": "float32"
                                },
                                "registered_name": null
                            },
                            "axis": -1,
                            "momentum": 0.99,
                            "epsilon": 0.001,
                            "center": true,
                            "scale": true,
                            "beta_initializer": {
                                "module": "keras.initializers",
                                "class_name": "Zeros",
                                "config": {},
                                "registered_name": null
                            },
                            "gamma_initializer": {
                                "module": "keras.initializers",
                                "class_name": "Ones",
                                "config": {},
                                "registered_name": null
                            },
                            "moving_mean_initializer": {
                                "module": "keras.initializers",
                                "class_name": "Zeros",
                                "config": {},
                                "registered_name": null
                            },
                            "moving_variance_initializer": {
                                "module": "keras.initializers",
                                "class_name": "Ones",
                                "config": {},
                                "registered_name": null
                            },
                            "beta_regularizer": null,
                            "gamma_regularizer": null,
                            "beta_constraint": null,
                            "gamma_constraint": null,
                            "synchronized": false
                        },
                        "name": "batch_normalization_26",
                        "inbound_nodes": [[["conv2d_26", 0, 0]]]
                    },
                    {
                        "class_name": "BatchNormalization",
                        "config": {
                            "name": "batch_normalization_27",
                            "trainable": true,
                            "dtype": {
                                "module": "keras",
                                "class_name": "DTypePolicy",
                                "config": {
                                    "name": "float32"
                                },
                                "registered_name": null
                            },
                            "axis": -1,
                            "momentum": 0.99,
                            "epsilon": 0.001,
                            "center": true,
                            "scale": true,
                            "beta_initializer": {
                                "module": "keras.initializers",
                                "class_name": "Zeros",
                                "config": {},
                                "registered_name": null
                            },
                            "gamma_initializer": {
                                "module": "keras.initializers",
                                "class_name": "Ones",
                                "config": {},
                                "registered_name": null
                            },
                            "moving_mean_initializer": {
                                "module": "keras.initializers",
                                "class_name": "Zeros",
                                "config": {},
                                "registered_name": null
                            },
                            "moving_variance_initializer": {
                                "module": "keras.initializers",
                                "class_name": "Ones",
                                "config": {},
                                "registered_name": null
                            },
                            "beta_regularizer": null,
                            "gamma_regularizer": null,
                            "beta_constraint": null,
                            "gamma_constraint": null,
                            "synchronized": false
                        },
                        "name": "batch_normalization_27",
                        "inbound_nodes": [[["conv2d_27", 0, 0]]]
                    },
                    {
                        "class_name": "Add",
                        "config": {
                            "name": "add_10",
                            "trainable": true,
                            "dtype": {
                                "module": "keras",
                                "class_name": "DTypePolicy",
                                "config": {
                                    "name": "float32"
                                },
                                "registered_name": null
                            }
                        },
                        "name": "add_10",
                        "inbound_nodes": [[["batch_normalization_26", 0, 0], ["batch_normalization_27", 0, 0]]]
                    },
                    {
                        "class_name": "ReLU",
                        "config": {
                            "name": "re_lu_23",
                            "trainable": true,
                            "dtype": {
                                "module": "keras",
                                "class_name": "DTypePolicy",
                                "config": {
                                    "name": "float32"
                                },
                                "registered_name": null
                            },
                            "max_value": null,
                            "negative_slope": 0.0,
                            "threshold": 0.0
                        },
                        "name": "re_lu_23",
                        "inbound_nodes": [[["add_10", 0, 0]]]
                    },
                    {
                        "class_name": "Conv2D",
                        "config": {
                            "name": "conv2d_28",
                            "trainable": true,
                            "dtype": {
                                "module": "keras",
                                "class_name": "DTypePolicy",
                                "config": {
                                    "name": "float32"
                                },
                                "registered_name": null
                            },
                            "filters": 256,
                            "kernel_size": [
                                3,
                                3
                            ],
                            "strides": [
                                1,
                                1
                            ],
                            "padding": "same",
                            "data_format": "channels_last",
                            "dilation_rate": [
                                1,
                                1
                            ],
                            "groups": 1,
                            "activation": "linear",
                            "use_bias": true,
                            "kernel_initializer": {
                                "module": "keras.initializers",
                                "class_name": "GlorotUniform",
                                "config": {
                                    "seed": null
                                },
                                "registered_name": null
                            },
                            "bias_initializer": {
                                "module": "keras.initializers",
                                "class_name": "Zeros",
                                "config": {},
                                "registered_name": null
                            },
                            "kernel_regularizer": null,
                            "bias_regularizer": null,
                            "activity_regularizer": null,
                            "kernel_constraint": null,
                            "bias_constraint": null
                        },
                        "name": "conv2d_28",
                        "inbound_nodes": [[["re_lu_23", 0, 0]]]
                    },
                    {
                        "class_name": "BatchNormalization",
                        "config": {
                            "name": "batch_normalization_28",
                            "trainable": true,
                            "dtype": {
                                "module": "keras",
                                "class_name": "DTypePolicy",
                                "config": {
                                    "name": "float32"
                                },
                                "registered_name": null
                            },
                            "axis": -1,
                            "momentum": 0.99,
                            "epsilon": 0.001,
                            "center": true,
                            "scale": true,
                            "beta_initializer": {
                                "module": "keras.initializers",
                                "class_name": "Zeros",
                                "config": {},
                                "registered_name": null
                            },
                            "gamma_initializer": {
                                "module": "keras.initializers",
                                "class_name": "Ones",
                                "config": {},
                                "registered_name": null
                            },
                            "moving_mean_initializer": {
                                "module": "keras.initializers",
                                "class_name": "Zeros",
                                "config": {},
                                "registered_name": null
                            },
                            "moving_variance_initializer": {
                                "module": "keras.initializers",
                                "class_name": "Ones",
                                "config": {},
                                "registered_name": null
                            },
                            "beta_regularizer": null,
                            "gamma_regularizer": null,
                            "beta_constraint": null,
                            "gamma_constraint": null,
                            "synchronized": false
                        },
                        "name": "batch_normalization_28",
                        "inbound_nodes": [[["conv2d_28", 0, 0]]]
                    },
                    {
                        "class_name": "ReLU",
                        "config": {
                            "name": "re_lu_24",
                            "trainable": true,
                            "dtype": {
                                "module": "keras",
                                "class_name": "DTypePolicy",
                                "config": {
                                    "name": "float32"
                                },
                                "registered_name": null
                            },
                            "max_value": null,
                            "negative_slope": 0.0,
                            "threshold": 0.0
                        },
                        "name": "re_lu_24",
                        "inbound_nodes": [[["batch_normalization_28", 0, 0]]]
                    },
                    {
                        "class_name": "Conv2D",
                        "config": {
                            "name": "conv2d_29",
                            "trainable": true,
                            "dtype": {
                                "module": "keras",
                                "class_name": "DTypePolicy",
                                "config": {
                                    "name": "float32"
                                },
                                "registered_name": null
                            },
                            "filters": 256,
                            "kernel_size": [
                                3,
                                3
                            ],
                            "strides": [
                                1,
                                1
                            ],
                            "padding": "same",
                            "data_format": "channels_last",
                            "dilation_rate": [
                                1,
                                1
                            ],
                            "groups": 1,
                            "activation": "linear",
                            "use_bias": true,
                            "kernel_initializer": {
                                "module": "keras.initializers",
                                "class_name": "GlorotUniform",
                                "config": {
                                    "seed": null
                                },
                                "registered_name": null
                            },
                            "bias_initializer": {
                                "module": "keras.initializers",
                                "class_name": "Zeros",
                                "config": {},
                                "registered_name": null
                            },
                            "kernel_regularizer": null,
                            "bias_regularizer": null,
                            "activity_regularizer": null,
                            "kernel_constraint": null,
                            "bias_constraint": null
                        },
                        "name": "conv2d_29",
                        "inbound_nodes": [[["re_lu_24", 0, 0]]]
                    },
                    {
                        "class_name": "BatchNormalization",
                        "config": {
                            "name": "batch_normalization_29",
                            "trainable": true,
                            "dtype": {
                                "module": "keras",
                                "class_name": "DTypePolicy",
                                "config": {
                                    "name": "float32"
                                },
                                "registered_name": null
                            },
                            "axis": -1,
                            "momentum": 0.99,
                            "epsilon": 0.001,
                            "center": true,
                            "scale": true,
                            "beta_initializer": {
                                "module": "keras.initializers",
                                "class_name": "Zeros",
                                "config": {},
                                "registered_name": null
                            },
                            "gamma_initializer": {
                                "module": "keras.initializers",
                                "class_name": "Ones",
                                "config": {},
                                "registered_name": null
                            },
                            "moving_mean_initializer": {
                                "module": "keras.initializers",
                                "class_name": "Zeros",
                                "config": {},
                                "registered_name": null
                            },
                            "moving_variance_initializer": {
                                "module": "keras.initializers",
                                "class_name": "Ones",
                                "config": {},
                                "registered_name": null
                            },
                            "beta_regularizer": null,
                            "gamma_regularizer": null,
                            "beta_constraint": null,
                            "gamma_constraint": null,
                            "synchronized": false
                        },
                        "name": "batch_normalization_29",
                        "inbound_nodes": [[["conv2d_29", 0, 0]]]
                    },
                    {
                        "class_name": "Add",
                        "config": {
                            "name": "add_11",
                            "trainable": true,
                            "dtype": {
                                "module": "keras",
                                "class_name": "DTypePolicy",
                                "config": {
                                    "name": "float32"
                                },
                                "registered_name": null
                            }
                        },
                        "name": "add_11",
                        "inbound_nodes": [[["batch_normalization_29", 0, 0], ["re_lu_23", 0, 0]]]
                    },
                    {
                        "class_name": "ReLU",
                        "config": {
                            "name": "re_lu_25",
                            "trainable": true,
                            "dtype": {
                                "module": "keras",
                                "class_name": "DTypePolicy",
                                "config": {
                                    "name": "float32"
                                },
                                "registered_name": null
                            },
                            "max_value": null,
                            "negative_slope": 0.0,
                            "threshold": 0.0
                        },
                        "name": "re_lu_25",
                        "inbound_nodes": [[["add_11", 0, 0]]]
                    },
                    {
                        "class_name": "GlobalAveragePooling2D",
                        "config": {
                            "name": "global_average_pooling2d_1",
                            "trainable": true,
                            "dtype": {
                                "module": "keras",
                                "class_name": "DTypePolicy",
                                "config": {
                                    "name": "float32"
                                },
                                "registered_name": null
                            },
                            "data_format": "channels_last",
                            "keepdims": false
                        },
                        "name": "global_average_pooling2d_1",
                        "inbound_nodes": [[["re_lu_25", 0, 0]]]
                    },
                    {
                        "class_name": "Dense",
                        "config": {
                            "name": "dense_2",
                            "trainable": true,
                            "dtype": {
                                "module": "keras",
                                "class_name": "DTypePolicy",
                                "config": {
                                    "name": "float32"
                                },
                                "registered_name": null
                            },
                            "units": 512,
                            "activation": "relu",
                            "use_bias": true,
                            "kernel_initializer": {
                                "module": "keras.initializers",
                                "class_name": "GlorotUniform",
                                "config": {
                                    "seed": null
                                },
                                "registered_name": null
                            },
                            "bias_initializer": {
                                "module": "keras.initializers",
                                "class_name": "Zeros",
                                "config": {},
                                "registered_name": null
                            },
                            "kernel_regularizer": null,
                            "bias_regularizer": null,
                            "kernel_constraint": null,
                            "bias_constraint": null
                        },
                        "name": "dense_2",
                        "inbound_nodes": [[["global_average_pooling2d_1", 0, 0]]]
                    },
                    {
                        "class_name": "Dropout",
                        "config": {
                            "name": "dropout_1",
                            "trainable": true,
                            "dtype": {
                                "module": "keras",
                                "class_name": "DTypePolicy",
                                "config": {
                                    "name": "float32"
                                },
                                "registered_name": null
                            },
                            "rate": 0.3,
                            "seed": null,
                            "noise_shape": null
                        },
                        "name": "dropout_1",
                        "inbound_nodes": [[["dense_2", 0, 0]]]
                    },
                    {
                        "class_name": "Dense",
                        "config": {
                            "name": "dense_3",
                            "trainable": true,
                            "dtype": {
                                "module": "keras",
                                "class_name": "DTypePolicy",
                                "config": {
                                    "name": "float32"
                                },
                                "registered_name": null
                            },
                            "units": 4032,
                            "activation": "softmax",
                            "use_bias": true,
                            "kernel_initializer": {
                                "module": "keras.initializers",
                                "class_name": "GlorotUniform",
                                "config": {
                                    "seed": null
                                },
                                "registered_name": null
                            },
                            "bias_initializer": {
                                "module": "keras.initializers",
                                "class_name": "Zeros",
                                "config": {},
                                "registered_name": null
                            },
                            "kernel_regularizer": null,
                            "bias_regularizer": null,
                            "kernel_constraint": null,
                            "bias_constraint": null
                        },
                        "name": "dense_3",
                        "inbound_nodes": [[["dropout_1", 0, 0]]]
                    }
                ],
                "input_layers": [
                    [
                        "input_layer_1",
                        0,
                        0
                    ]
                ],
                "output_layers": [
                    [
                        "dense_3",
                        0,
                        0
                    ]
                ]
            }
        },
        "training_config": {
            "loss": "sparse_categorical_crossentropy",
            "loss_weights": null,
            "metrics": [
                "accuracy"
            ],
            "weighted_metrics": null,
            "run_eagerly": false,
            "steps_per_execution": 1,
            "jit_compile": true,
            "optimizer_config": {
                "class_name": "Adam",
                "config": {
                    "name": "adam",
                    "learning_rate": 0.0010000000474974513,
                    "weight_decay": null,
                    "clipnorm": null,
                    "global_clipnorm": null,
                    "clipvalue": null,
                    "use_ema": false,
                    "ema_momentum": 0.99,
                    "ema_overwrite_frequency": null,
                    "loss_scale_factor": null,
                    "gradient_accumulation_steps": null,
                    "beta_1": 0.9,
                    "beta_2": 0.999,
                    "epsilon": 1e-07,
                    "amsgrad": false
                }
            }
        }
    },
    "weightsManifest": [
        {
            "paths": [
                "group1-shard1of5.bin",
                "group1-shard2of5.bin",
                "group1-shard3of5.bin",
                "group1-shard4of5.bin",
                "group1-shard5of5.bin"
            ],
            "weights": [
                {
                    "name": "batch_normalization_15/gamma",
                    "shape": [
                        64
                    ],
                    "dtype": "float32"
                },
                {
                    "name": "batch_normalization_15/beta",
                    "shape": [
                        64
                    ],
                    "dtype": "float32"
                },
                {
                    "name": "batch_normalization_15/moving_mean",
                    "shape": [
                        64
                    ],
                    "dtype": "float32"
                },
                {
                    "name": "batch_normalization_15/moving_variance",
                    "shape": [
                        64
                    ],
                    "dtype": "float32"
                },
                {
                    "name": "batch_normalization_16/gamma",
                    "shape": [
                        64
                    ],
                    "dtype": "float32"
                },
                {
                    "name": "batch_normalization_16/beta",
                    "shape": [
                        64
                    ],
                    "dtype": "float32"
                },
                {
                    "name": "batch_normalization_16/moving_mean",
                    "shape": [
                        64
                    ],
                    "dtype": "float32"
                },
                {
                    "name": "batch_normalization_16/moving_variance",
                    "shape": [
                        64
                    ],
                    "dtype": "float32"
                },
                {
                    "name": "batch_normalization_17/gamma",
                    "shape": [
                        64
                    ],
                    "dtype": "float32"
                },
                {
                    "name": "batch_normalization_17/beta",
                    "shape": [
                        64
                    ],
                    "dtype": "float32"
                },
                {
                    "name": "batch_normalization_17/moving_mean",
                    "shape": [
                        64
                    ],
                    "dtype": "float32"
                },
                {
                    "name": "batch_normalization_17/moving_variance",
                    "shape": [
                        64
                    ],
                    "dtype": "float32"
                },
                {
                    "name": "batch_normalization_18/gamma",
                    "shape": [
                        64
                    ],
                    "dtype": "float32"
                },
                {
                    "name": "batch_normalization_18/beta",
                    "shape": [
                        64
                    ],
                    "dtype": "float32"
                },
                {
                    "name": "batch_normalization_18/moving_mean",
                    "shape": [
                        64
                    ],
                    "dtype": "float32"
                },
                {
                    "name": "batch_normalization_18/moving_variance",
                    "shape": [
                        64
                    ],
                    "dtype": "float32"
                },
                {
                    "name": "batch_normalization_19/gamma",
                    "shape": [
                        64
                    ],
                    "dtype": "float32"
                },
                {
                    "name": "batch_normalization_19/beta",
                    "shape": [
                        64
                    ],
                    "dtype": "float32"
                },
                {
                    "name": "batch_normalization_19/moving_mean",
                    "shape": [
                        64
                    ],
                    "dtype": "float32"
                },
                {
                    "name": "batch_normalization_19/moving_variance",
                    "shape": [
                        64
                    ],
                    "dtype": "float32"
                },
                {
                    "name": "batch_normalization_20/gamma",
                    "shape": [
                        128
                    ],
                    "dtype": "float32"
                },
                {
                    "name": "batch_normalization_20/beta",
                    "shape": [
                        128
                    ],
                    "dtype": "float32"
                },
                {
                    "name": "batch_normalization_20/moving_mean",
                    "shape": [
                        128
                    ],
                    "dtype": "float32"
                },
                {
                    "name": "batch_normalization_20/moving_variance",
                    "shape": [
                        128
                    ],
                    "dtype": "float32"
                },
                {
                    "name": "batch_normalization_21/gamma",
                    "shape": [
                        128
                    ],
                    "dtype": "float32"
                },
                {
                    "name": "batch_normalization_21/beta",
                    "shape": [
                        128
                    ],
                    "dtype": "float32"
                },
                {
                    "name": "batch_normalization_21/moving_mean",
                    "shape": [
                        128
                    ],
                    "dtype": "float32"
                },
                {
                    "name": "batch_normalization_21/moving_variance",
                    "shape": [
                        128
                    ],
                    "dtype": "float32"
                },
                {
                    "name": "batch_normalization_22/gamma",
                    "shape": [
                        128
                    ],
                    "dtype": "float32"
                },
                {
                    "name": "batch_normalization_22/beta",
                    "shape": [
                        128
                    ],
                    "dtype": "float32"
                },
                {
                    "name": "batch_normalization_22/moving_mean",
                    "shape": [
                        128
                    ],
                    "dtype": "float32"
                },
                {
                    "name": "batch_normalization_22/moving_variance",
                    "shape": [
                        128
                    ],
                    "dtype": "float32"
                },
                {
                    "name": "batch_normalization_23/gamma",
                    "shape": [
                        128
                    ],
                    "dtype": "float32"
                },
                {
                    "name": "batch_normalization_23/beta",
                    "shape": [
                        128
                    ],
                    "dtype": "float32"
                },
                {
                    "name": "batch_normalization_23/moving_mean",
                    "shape": [
                        128
                    ],
                    "dtype": "float32"
                },
                {
                    "name": "batch_normalization_23/moving_variance",
                    "shape": [
                        128
                    ],
                    "dtype": "float32"
                },
                {
                    "name": "batch_normalization_24/gamma",
                    "shape": [
                        128
                    ],
                    "dtype": "float32"
                },
                {
                    "name": "batch_normalization_24/beta",
                    "shape": [
                        128
                    ],
                    "dtype": "float32"
                },
                {
                    "name": "batch_normalization_24/moving_mean",
                    "shape": [
                        128
                    ],
                    "dtype": "float32"
                },
                {
                    "name": "batch_normalization_24/moving_variance",
                    "shape": [
                        128
                    ],
                    "dtype": "float32"
                },
                {
                    "name": "batch_normalization_25/gamma",
                    "shape": [
                        256
                    ],
                    "dtype": "float32"
                },
                {
                    "name": "batch_normalization_25/beta",
                    "shape": [
                        256
                    ],
                    "dtype": "float32"
                },
                {
                    "name": "batch_normalization_25/moving_mean",
                    "shape": [
                        256
                    ],
                    "dtype": "float32"
                },
                {
                    "name": "batch_normalization_25/moving_variance",
                    "shape": [
                        256
                    ],
                    "dtype": "float32"
                },
                {
                    "name": "batch_normalization_26/gamma",
                    "shape": [
                        256
                    ],
                    "dtype": "float32"
                },
                {
                    "name": "batch_normalization_26/beta",
                    "shape": [
                        256
                    ],
                    "dtype": "float32"
                },
                {
                    "name": "batch_normalization_26/moving_mean",
                    "shape": [
                        256
                    ],
                    "dtype": "float32"
                },
                {
                    "name": "batch_normalization_26/moving_variance",
                    "shape": [
                        256
                    ],
                    "dtype": "float32"
                },
                {
                    "name": "batch_normalization_27/gamma",
                    "shape": [
                        256
                    ],
                    "dtype": "float32"
                },
                {
                    "name": "batch_normalization_27/beta",
                    "shape": [
                        256
                    ],
                    "dtype": "float32"
                },
                {
                    "name": "batch_normalization_27/moving_mean",
                    "shape": [
                        256
                    ],
                    "dtype": "float32"
                },
                {
                    "name": "batch_normalization_27/moving_variance",
                    "shape": [
                        256
                    ],
                    "dtype": "float32"
                },
                {
                    "name": "batch_normalization_28/gamma",
                    "shape": [
                        256
                    ],
                    "dtype": "float32"
                },
                {
                    "name": "batch_normalization_28/beta",
                    "shape": [
                        256
                    ],
                    "dtype": "float32"
                },
                {
                    "name": "batch_normalization_28/moving_mean",
                    "shape": [
                        256
                    ],
                    "dtype": "float32"
                },
                {
                    "name": "batch_normalization_28/moving_variance",
                    "shape": [
                        256
                    ],
                    "dtype": "float32"
                },
                {
                    "name": "batch_normalization_29/gamma",
                    "shape": [
                        256
                    ],
                    "dtype": "float32"
                },
                {
                    "name": "batch_normalization_29/beta",
                    "shape": [
                        256
                    ],
                    "dtype": "float32"
                },
                {
                    "name": "batch_normalization_29/moving_mean",
                    "shape": [
                        256
                    ],
                    "dtype": "float32"
                },
                {
                    "name": "batch_normalization_29/moving_variance",
                    "shape": [
                        256
                    ],
                    "dtype": "float32"
                },
                {
                    "name": "conv2d_15/kernel",
                    "shape": [
                        3,
                        3,
                        12,
                        64
                    ],
                    "dtype": "float32"
                },
                {
                    "name": "conv2d_15/bias",
                    "shape": [
                        64
                    ],
                    "dtype": "float32"
                },
                {
                    "name": "conv2d_16/kernel",
                    "shape": [
                        3,
                        3,
                        64,
                        64
                    ],
                    "dtype": "float32"
                },
                {
                    "name": "conv2d_16/bias",
                    "shape": [
                        64
                    ],
                    "dtype": "float32"
                },
                {
                    "name": "conv2d_17/kernel",
                    "shape": [
                        3,
                        3,
                        64,
                        64
                    ],
                    "dtype": "float32"
                },
                {
                    "name": "conv2d_17/bias",
                    "shape": [
                        64
                    ],
                    "dtype": "float32"
                },
                {
                    "name": "conv2d_18/kernel",
                    "shape": [
                        3,
                        3,
                        64,
                        64
                    ],
                    "dtype": "float32"
                },
                {
                    "name": "conv2d_18/bias",
                    "shape": [
                        64
                    ],
                    "dtype": "float32"
                },
                {
                    "name": "conv2d_19/kernel",
                    "shape": [
                        3,
                        3,
                        64,
                        64
                    ],
                    "dtype": "float32"
                },
                {
                    "name": "conv2d_19/bias",
                    "shape": [
                        64
                    ],
                    "dtype": "float32"
                },
                {
                    "name": "conv2d_20/kernel",
                    "shape": [
                        3,
                        3,
                        64,
                        128
                    ],
                    "dtype": "float32"
                },
                {
                    "name": "conv2d_20/bias",
                    "shape": [
                        128
                    ],
                    "dtype": "float32"
                },
                {
                    "name": "conv2d_21/kernel",
                    "shape": [
                        3,
                        3,
                        128,
                        128
                    ],
                    "dtype": "float32"
                },
                {
                    "name": "conv2d_21/bias",
                    "shape": [
                        128
                    ],
                    "dtype": "float32"
                },
                {
                    "name": "conv2d_22/kernel",
                    "shape": [
                        1,
                        1,
                        64,
                        128
                    ],
                    "dtype": "float32"
                },
                {
                    "name": "conv2d_22/bias",
                    "shape": [
                        128
                    ],
                    "dtype": "float32"
                },
                {
                    "name": "conv2d_23/kernel",
                    "shape": [
                        3,
                        3,
                        128,
                        128
                    ],
                    "dtype": "float32"
                },
                {
                    "name": "conv2d_23/bias",
                    "shape": [
                        128
                    ],
                    "dtype": "float32"
                },
                {
                    "name": "conv2d_24/kernel",
                    "shape": [
                        3,
                        3,
                        128,
                        128
                    ],
                    "dtype": "float32"
                },
                {
                    "name": "conv2d_24/bias",
                    "shape": [
                        128
                    ],
                    "dtype": "float32"
                },
                {
                    "name": "conv2d_25/kernel",
                    "shape": [
                        3,
                        3,
                        128,
                        256
                    ],
                    "dtype": "float32"
                },
                {
                    "name": "conv2d_25/bias",
                    "shape": [
                        256
                    ],
                    "dtype": "float32"
                },
                {
                    "name": "conv2d_26/kernel",
                    "shape": [
                        3,
                        3,
                        256,
                        256
                    ],
                    "dtype": "float32"
                },
                {
                    "name": "conv2d_26/bias",
                    "shape": [
                        256
                    ],
                    "dtype": "float32"
                },
                {
                    "name": "conv2d_27/kernel",
                    "shape": [
                        1,
                        1,
                        128,
                        256
                    ],
                    "dtype": "float32"
                },
                {
                    "name": "conv2d_27/bias",
                    "shape": [
                        256
                    ],
                    "dtype": "float32"
                },
                {
                    "name": "conv2d_28/kernel",
                    "shape": [
                        3,
                        3,
                        256,
                        256
                    ],
                    "dtype": "float32"
                },
                {
                    "name": "conv2d_28/bias",
                    "shape": [
                        256
                    ],
                    "dtype": "float32"
                },
                {
                    "name": "conv2d_29/kernel",
                    "shape": [
                        3,
                        3,
                        256,
                        256
                    ],
                    "dtype": "float32"
                },
                {
                    "name": "conv2d_29/bias",
                    "shape": [
                        256
                    ],
                    "dtype": "float32"
                },
                {
                    "name": "dense_2/kernel",
                    "shape": [
                        256,
                        512
                    ],
                    "dtype": "float32"
                },
                {
                    "name": "dense_2/bias",
                    "shape": [
                        512
                    ],
                    "dtype": "float32"
                },
                {
                    "name": "dense_3/kernel",
                    "shape": [
                        512,
                        4032
                    ],
                    "dtype": "float32"
                },
                {
                    "name": "dense_3/bias",
                    "shape": [
                        4032
                    ],
                    "dtype": "float32"
                }
            ]
        }
    ]
}